model/models/DNN_QWEN3_W2V_mean_no_sign_sequences_0.833.pt (torch, 743780 bytes, 8 tensors)

net.0.weight f4 [128, 1363]
00000000: 5a7a 89be 1a51 abbf 0014 023f 443e 2e3f
00000010: 12dc 2cbf 5ed1 f03e 57a9 5cbf 6a5e 0ebd
00000020: 6b4a 853e 6e18 0b3f 786b 453e a899 fdbd
00000030: 7876 8a3f 518a 0b3f e201 623e 49c4 2dbf
00000040: d8c6 7fbf 2dff 023f be22 e0be ee55 2ebf
00000050: a399 14bf c8b3 39bf 4075 f9be 7087 0a3f
00000060: a33e ecbe 7cf1 03c0 8e93 b9bf e443 2bbf
00000070: b02b d43d 6415 8a3f 2b4c 40bf 5d5b b5be
00000080: 35bc a0bd 7e00 f13f 65b0 823e 4f9f fb3e
00000090: e206 133d 17da 71bf a92d 2e3f edf9 57bf
000000a0: 75c2 dd3e 982c f4bf f7a3 aebe d3e3 b5bf
000000b0: fe51 71be b106 a93f 8fd1 aa3b c562 d73f
000000c0: bfd8 5dbf 7071 14c0 150b f6be fb15 f3be
000000d0: 12ca 00c0 fe4b 7d3e 9a6e 01bf 4f21 a8bf
000000e0: c418 f2be 2700 85bf 44d8 b8bf 984d 58bf
000000f0: d09a 053e 841d 433f 77bc b53e a29f 2c3f
00000100: 0b8f 0a3f aea5 2abf 8159 95be c992 5a3f
00000110: b08f 10bf 6149 043f 4c72 b4be e1a6 da3e
00000120: 9888 2abf e9f3 68bf d11e 2a3f e294 39bf
00000130: bf53 b6bf d532 68bf a619 c43e 9d75 533e
00000140: 6009 ddbf 1156 bf3e 8e2b 713e a7b7 d63e
00000150: 076d a9bf 8fd7 6ebf 9798 f63e e085 edbf
00000160: de6f 823f c0a7 073f 227a c5bf 3c04 a5bd
00000170: e704 20be 03a4 b53e 3880 003e bd6e 523f
00000180: d6cd 973f a269 2cbf bbd9 183e c757 803f
00000190: cb25 cbbf eba9 903e 05a4 b23d 7af2 113f
000001a0: 500c 3ebd 2781 9abe 2230 0e3f 170f cebe
000001b0: fdf2 f63e 9963 1c3f 36d1 a6bf a074 403f
000001c0: 2c8f bfbe 834a 9ebf 6de6 57bf 7f3b 5ebf
000001d0: cb07 ae3f df6d 813f 73e5 8e3e e10b 8bbf
000001e0: 0cb8 98bf 0a78 ddbe 7868 0f3f 0083 a8be
000001f0: 46d8 ffbe c0a4 a23f 03f5 80bc 3d28 403f
00000200: ae9d 8b3e ef03 9c3e 520a 97bf 4255 8bbd
00000210: 4754 a63e 8178 32be 4f2a b9b8 7b55 563f
00000220: b862 af3d 92c7 67bf e8b7 783e d281 17c0
00000230: 3bdc dd3e a9af 11bf a522 4d3f f4ee 1c3f
00000240: 8bbe 35bf 7856 00bf 97e4 91bf 9f16 8a3f
00000250: 913a da3e b3fc e83e 89c7 89bf bb26 0dbf
00000260: fdae 17be be74 8c3f cfb1 653f d22d a83e
00000270: 58bf bbbf 5b2d 3a3d 8718 8ebf 2800 5bbd
00000280: cb09 81bf 532f 1b40 6758 ea3e 1fe6 523f
00000290: 5f41 e23f 7491 03bf 67c3 e53f bffd bbbd
000002a0: ad4c 7f3f d26a 0d3f 0d80 5fbf 1603 7d3e
000002b0: 6fec 14be 6194 d1be ff2c e1bf 7657 8c3d
000002c0: 74fb 973f 9421 733f 2ddb b33e 653f f7bd
000002d0: 6c43 9a3f 4920 1cbf e51c bebc ad14 9dbc
000002e0: cdc5 cd3f e101 2cbf 4157 7f3e b655 a5be
000002f0: 2f10 d43f d6ce d43f d60d c13e 8f4c 393e
00000300: 594a ffbd 8104 1dbd a52d 103f 05c7 663e
00000310: f47c d13d db4a 44be c285 ffbf efa3 833f
00000320: 3f42 02bf cdb2 053f 0e1e 983d c158 6cbf
00000330: 0df8 8fbf 1c50 84be a528 293f 1d82 24be
00000340: 4b39 db3e 6bb5 0c3f 9c4d 343e 25e3 a63f
00000350: 42d1 213f cb90 9c3e 4fa2 babe bdf5 00be
00000360: 04a8 9ebf d191 233f d88a 1bbf 37d3 16bf
00000370: a698 c7be 3fbf c33e 2f30 ca3f b3ad 60bf
00000380: 5ecf f0be a303 233f af34 89bf e028 a4be
00000390: 9314 5cbf 1d7d 403f 3c86 42bf 1124 0ebf
000003a0: 9142 0abf 241f 703f 4f4a 42bf e2e1 813c
000003b0: dba9 00bf 7fbd 5f3c 3633 5b3c 95e9 f0bf
000003c0: 9b9a 1f3f c16b 533f 7225 a43e 6310 c83e
000003d0: e235 26bf c2a4 3e3f 6a58 51bf f669 f43e
000003e0: dc18 783f 2217 94bf 1bb7 1a3f 9699 6dbd
000003f0: e7fa 633f 28aa 7ebf c84f e4bf 5f67 a73f
-0.2685116 -1.3384125 0.5081177 0.6806376 -0.675233 0.47034734 -0.8619589 -0.03475801
0.2603334 0.5433415 0.19279277 -0.12382823 1.0817404 0.5450793 0.2207103 -0.6787763
-0.99912786 0.5117062 -0.43776506 -0.6809987 -0.5804693 -0.7253995 -0.48722267 0.5411291
-0.46141538 -2.061614 -1.4498155 -0.6690047 0.10359895 1.0787778 -0.75116223 -0.35421267
-0.07848398 1.8828275 0.25525203 0.4914498 0.035895236 -0.94473404 0.6803842 -0.8436573
0.4331242 -1.9076109 -0.3410947 -1.4210151 -0.23566434 1.3205167 0.0052129696 1.6827017
-0.86658853 -2.3194237 -0.4805533 -0.47477707 -2.0123334 0.2473602 -0.5055939 -1.3135165
-0.4728452 -1.0390671 -1.4440999 -0.844934 0.13047338 0.7621691 0.3549535 0.6743108
0.54124516 -0.6665906 -0.2916985 0.85380226 -0.5646925 0.5167447 -0.35243452 0.42705444
-0.66614676 -0.9099718 0.6645327 -0.724928 -1.4244307 -0.90702564 0.38300818 0.20650335
-1.7268486 0.3737035 0.23551771 0.4193699 -1.3236398 -0.93297666 0.48163292 -1.855648
1.0190389 0.5299034 -1.5427897 -0.08057448 -0.1562687 0.35476694 0.12548912 0.82200223
1.1859691 -0.6734868 0.14926808 1.0026788 -1.5870908 0.28254637 0.087226905 0.57010615
-0.04639846 -0.3017666 0.55542195 -0.40245888 0.4823226 0.61089474 -1.3032596 0.75177956
-0.3741392 -1.2366489 -0.84335977 -0.86809534 1.3596128 1.0111655 0.2790943 -1.0863
-1.1931167 -0.43255645 0.5601878 -0.32912445 -0.4996969 1.2706528 -0.01574183 0.750614
0.27268738 0.3047175 -1.1800025 -0.06803371 0.32486174 -0.17428781 -8.829368e-05 0.8372418
0.08563751 -0.90538895 0.24288905 -2.3672986 0.43332085 -0.5690866 0.8013099 0.61302114
-0.7099387 -0.5013194 -1.1397885 1.0788153 0.42622808 0.45505294 -1.0764018 -0.55137223
-0.14812846 1.0973127 0.8972444 0.32847458 -1.4667768 0.04545341 -1.1101235 -0.053466946
-1.0081114 2.4247634 0.4577057 0.82382387 1.76762 -0.5139382 1.7950257 -0.091792576
0.9972637 0.5524112 -0.87304765 0.24708208 -0.14543317 -0.40933517 -1.7591857 0.06852619
1.1873612 0.9497311 0.35128155 -0.120726384 1.2051826 -0.60986763 -0.023207137 -0.019174898
1.6075989 -0.67190367 0.24935628 -0.32291955 1.6567439 1.6625621 0.37705868 0.18095611
-0.124653526 -0.038334373 0.5631965 0.22536857 0.10228911 -0.1916918 -1.9962695 1.0284404
-0.50882334 0.52225953 0.074276075 -0.9232293 -1.1247574 -0.2584237 0.66077644 -0.1606526
0.4281715 0.5496432 0.1760773 1.3038069 0.6320993 0.30579218 -0.36451957 -0.12593742
-1.2395024 0.63894373 -0.60758734 -0.5891604 -0.3898365 0.38231847 1.5795954 -0.87765044
-0.4703321 0.63677424 -1.0719203 -0.32062435 -0.85968894 0.7519091 -0.75986075 -0.5552378
-0.5400782 0.93797517 -0.75894636 0.01585478 -0.5025918 0.013656019 0.013378909 -1.8821284
0.62345284 0.82586294 0.32059819 0.39075002 -0.6492597 0.7447015 -0.81775534 0.47737092
0.9691293 -1.156956 0.60435647 -0.0580078 0.8905472 -0.9947839 -1.7836847 1.3078421

net.0.bias f4 [128]
00000000: b6f4 58be 0c2d ecbc 918b d73b 2f53 73bd
00000010: fd6d 24bd ec5c 7bbc 25d1 bebd bb80 dcbc
00000020: 4e1f 053c c3bb 68bd 9f8d abbb 274b 34bc
00000030: 6172 9d3b 10bc 2fbd 14a7 26bd f1ad 173f
00000040: 7257 e8bd ecc9 ee3d a450 08bf 5d7c 99bd
00000050: d38a 97bd ff34 37bd d21f 19bd ca2e 27bc
00000060: 2f59 2ebd 9871 e9bc d331 fc3b aa25 b93c
00000070: 6d06 f43b 5378 54bd c47a 6bbd f882 b63c
00000080: 38cd 023c 5e8e a43d f7c5 83bb e871 00bf
00000090: e05f 12bd 40dd 9e3e 7846 213f f166 e73a
000000a0: ef52 f2bc 7a10 bbbc cd41 27be 6aed 2f3f
000000b0: b13a c93d 4fe6 013e e2db 16bf 8943 b7bc
000000c0: 89f9 ccbc bb77 cfbb 6c17 0bbd 7eea 323f
000000d0: b24f 7ebe f72d 0fbc a67d 91be ba09 b2bb
000000e0: 9040 bebc f1bd 453e fc35 35be 47b0 88bc
000000f0: 2937 4abe a3f8 c3bc 310b 9abd 342d 02bd
00000100: bcc0 1dbd e57e c93b 8d15 19bd b4b0 06be
00000110: 2167 bdbb 2f2a fa3a c501 a2bb f788 4cbb
00000120: 9792 37bc ce1c a5bd 6b7b f93c 82aa 98bd
00000130: 2306 54bd a83d 8dbc c6f2 35bb 5731 6cbc
00000140: e2ea 03bd aebc 0cbc 9735 14bd f46d c3bc
00000150: f861 8fbd b013 0dbc 3df1 00bd 7aee 5dbb
00000160: 80e8 dfbe 86ad c8bc 74a0 a0bc 8fc6 fdbc
00000170: 6096 1dbd e349 3f3f 699b 1f3f eae0 623e
00000180: cc8e 03bb 5220 8b3e 37d5 cdbc 7c3d 79bd
00000190: f319 02bd 80c0 16bf e1f8 92bc a3cf 2dbe
000001a0: 0802 eabd 12e8 afbe 0e6d 3c3a a3da 0e3c
000001b0: 950e 4c3c 5983 1fbe 94f2 0ebf c968 ec3c
000001c0: 5784 1ebd b133 333e 56e4 bebd 79c3 f53b
000001d0: cc14 503e 2495 7b3c 4875 04bb 1cda a4be
000001e0: f7c0 16bd 979d a03d 6257 87bc bccd caba
000001f0: f4a6 d4ba 4b87 263d 95a6 18bd 2972 b3bc
-0.211871 -0.028830074 0.006577917 -0.059405502 -0.040143955 -0.0153419785 -0.09317235 -0.026916852
0.008125139 -0.05681969 -0.0052353884 -0.011004246 0.004804895 -0.04290396 -0.040686682 0.5924979
-0.11344804 0.11659607 -0.5324805 -0.074944235 -0.073995255 -0.044728275 -0.03738386 -0.0102040265
-0.04256552 -0.028496549 0.007696369 0.022600967 0.007447055 -0.051872563 -0.057490125 0.022279248
0.007983498 0.08034967 -0.004021402 -0.5017381 -0.035735965 0.31028175 0.6299815 0.001765458
-0.029580561 -0.022835005 -0.16333695 0.6872164 0.098256476 0.12685512 -0.58929265 -0.02237107
-0.025021331 -0.0063314117 -0.033957884 0.69889057 -0.24835089 -0.008738986 -0.28416175 -0.0054332884
-0.023224145 0.19310738 -0.17696375 -0.016685618 -0.19747604 -0.02392227 -0.07521666 -0.03178139
-0.038513884 0.00614916 -0.037374068 -0.13153344 -0.005780116 0.0019086058 -0.0049440586 -0.0031209567
-0.011204383 -0.08062135 0.030454358 -0.07454397 -0.051763665 -0.017241314 -0.0027763112 -0.01441606
-0.032206424 -0.008589907 -0.03618392 -0.02385614 -0.07001108 -0.008610651 -0.031480063 -0.0033864067
-0.4373207 -0.024496805 -0.01960776 -0.03097847 -0.038473487 0.7472212 0.6234651 0.2215611
-0.0020074127 0.27173096 -0.025126083 -0.06084965 -0.03176303 -0.5888748 -0.01794094 -0.16973738
-0.11426169 -0.34356743 0.0007187881 0.008719119 0.0124546485 -0.15577449 -0.55838895 0.02885856
-0.038700428 0.17500187 -0.093208954 0.007500109 0.20320433 0.015355382 -0.0020211507 -0.32197654
-0.03680512 0.07842558 -0.01652116 -0.001547269 -0.0016224072 0.04065637 -0.03726824 -0.021905022

net.3.weight f4 [64, 128]
00000000: 26af b03d fd39 8b3d 756e 13bd 36b1 253d
00000010: 5b46 d4bc ee35 6cbd af68 81bd c6d3 85bd
00000020: 367c c83c c776 a0bd ec7a 8c3c 3f21 0b3b
00000030: dafc 233d f41c 2c3d c6ce e0bd 3b1b b6bc
00000040: 6cef dcbd 3035 a9be ef68 793d ac26 3c3e
00000050: 1b36 8d3d a868 c13c 0e2c 553d 1f0c 353d
00000060: 7df5 13bc 9550 78be dddd ecbc 8ba7 af3d
00000070: c1c6 4c3d 85e7 eebc ed14 fcbc 251e 9d3d
00000080: a2e1 2f3c 2e3a 253d d362 203d a6f4 75bc
00000090: 617f ee3c 4318 6cbc 7e96 43be 41a9 bb3c
000000a0: 0ba6 a6bc f74f 9a3d 0b04 013d 8612 63bc
000000b0: fa56 033d 500a 903e 2ade febd 2e18 083d
000000c0: a800 553d 5518 9d3d d5b5 ebbd 57b8 603e
000000d0: d13e 4cbd 75d8 9fbd 9ea7 33be ab9b ba3d
000000e0: f920 5cbd 94f9 413d 57fa 2239 e657 203d
000000f0: 179b 9dba d946 3cbd 17e0 a33b 0239 04bc
00000100: 3ee5 5fbd 2ccd b6bb 5314 b2bd 709b f3bd
00000110: 93b8 303b cdbc d6ba 278c 92bd ef08 f03c
00000120: c22d 413c be04 b4bd 2032 d8be 9b6b 46bd
00000130: 1cb0 ff3c 71c9 6abc 2975 1f3e 546f b0bd
00000140: 91b8 703d 31aa 8dbc 5d3c 683d 4d33 aa3b
00000150: 388c 963d 176e bc3c f9eb 76bd b034 94bd
00000160: 672c 12be 5488 b13d 00bb c0bb 835e c9bc
00000170: 6b43 a23c 3b58 9d3d a082 2cbe 870c 083e
00000180: 5339 da3b 8c17 1d3d 8c19 47be ee80 3fbd
00000190: d62f 7bbc 431c 25be 176a 91bd a429 8c3c
000001a0: 076c 763e 8d7e ffbd 7baf dabc 3013 64bd
000001b0: 23ac 2fbd 186a c6bd 21d6 c73b 0281 8e3c
000001c0: aa85 d53c a2dd 8a3e c90c ad3d 9723 3fbd
000001d0: 2771 1f3e 03d8 593d 49c9 b2bc e841 a8bd
000001e0: 0d1a 983d deb3 823d 9c7b d3bd 1ef0 c23b
000001f0: 97de a23c 7959 fa3c 5416 10bd cc21 2cbd
00000200: ef65 babd 121c d63d bd03 8b3c ea1e 913c
00000210: 7c98 b53d b119 863c 777a ef3a ed64 05bc
00000220: 4847 3dbc 632f 2e3d 50ef 48bd a4c3 dc3c
00000230: a0f0 92bd f515 3a3c 9824 d0bc 1ccb e4bc
00000240: 41ae 77be b519 93bd aaba b7bc df3f 8cbe
00000250: 9625 a73c 9a3b 28bd d491 663d c006 7fbd
00000260: 8af0 123d 3f5b babe fff2 71bc 66aa 0f3d
00000270: 60e4 953d a0f2 573d e1e0 ca3e fd48 02bb
00000280: f05b 2d3c a1b4 a5bd 5985 3dbd 6c3c 92bd
00000290: ea4c 7bbd 7197 c0bd 88cf 8dbe f880 58bd
000002a0: 5f33 1b3d d59e 0bbd 3595 383d 3410 623b
000002b0: f24a 66bd f69e debd f0c4 8d3d 998d 91bd
000002c0: 58b6 2cbd 8ba8 d5bc add3 59ba 10c4 c83d
000002d0: d92f a03d 01b6 39bd 80cf 793e 9834 203d
000002e0: 4aed e5bc 3d1a 5dbe 5de7 95bd 0b86 f93d
000002f0: 1ae5 963d 8896 c93c cd17 a53c acb6 423d
00000300: 3100 f43b cfcc 37bc 9a32 8fbc c727 8b3e
00000310: ae50 1d3d 1607 cb3b 23c6 833d 3c1c 58bd
00000320: 5c81 c53d 30b1 86bd 62c3 313e 9719 50bd
00000330: ce48 78bd 14a0 ac3c d4b5 143f 2379 203c
00000340: ec6d 9b3d 3f65 41bd 955c 9d3d 1671 343d
00000350: 2e77 3bbe 8cbf 953c 934e 833d d38e 1c3d
00000360: c4ab 93bc 5dab 3bbd 46fb 813d b309 7f3d
00000370: 6da7 4ebd befa 59be 8f0b fdbd 2285 263d
00000380: 7d7d f33b 2de6 0f3d 4d14 603d a90c b73b
00000390: 047d 983d 8030 103d ea29 753b 2a4d 8bbd
000003a0: becc 9c3e ccd7 52ba 934c 893d 7994 763c
000003b0: 51dc 8bba 6176 6cbb dec7 393d f013 02bd
000003c0: 2e43 163b 9248 d4bd ec77 d4bd 0248 06be
000003d0: 01b3 433e 6af8 abbd 6f97 b9bc 7c4a 543d
000003e0: f301 ad3d f8bd 963c b20e d1bd 4374 0dbc
000003f0: 8b78 40bd aba7 b9be 0e31 1cbc e6b1 aabd
0.08627157 0.0679817 -0.035994012 0.040452205 -0.025912454 -0.05766862 -0.06318795 -0.06534533
0.02447329 -0.07835155 0.017148457 0.0021229533 0.04003606 0.0420198 -0.10976939 -0.022229781
-0.107878536 -0.3304839 0.060891088 0.18374127 0.068950854 0.023609474 0.052043967 0.044201013
-0.009030697 -0.2424949 -0.028914386 0.08576878 0.049994234 -0.029163131 -0.030771697 0.07671765
0.010734947 0.040338688 0.039156746 -0.015011942 0.029113473 -0.014410081 -0.19100377 0.022907855
-0.020342847 0.07534783 0.031497996 -0.013859397 0.03206537 0.28132868 -0.12444718 0.033226185
0.05200258 0.076706566 -0.11509291 0.2194532 -0.049864594 -0.07804958 -0.1754441 0.091117226
-0.053742383 0.047357157 0.00015542783 0.039146326 -0.001202437 -0.045966003 0.005001079 -0.008070232
-0.05466198 -0.0055786576 -0.08695283 -0.11894882 0.0026965484 -0.0016383171 -0.07155638 0.029301135
0.011790695 -0.08789967 -0.42225742 -0.048442464 0.031211905 -0.014330254 0.15572037 -0.08614984
0.058769766 -0.017293068 0.056698192 0.005194104 0.07350963 0.023001714 -0.060283635 -0.07236612
-0.1427475 0.08668581 -0.005881667 -0.0245812 0.019807538 0.07682844 -0.16846704 0.13286029
0.0066596656 0.038352534 -0.19443339 -0.046753816 -0.015331229 -0.16124062 -0.07100313 0.0171097
0.24064647 -0.124753095 -0.026695004 -0.05568236 -0.04288877 -0.096882045 0.006098524 0.0173955
0.026064713 0.27122217 0.08449704 -0.0466648 0.15570508 0.05318452 -0.021824496 -0.082156956
0.07426844 0.06381963 -0.10326311 0.0059490344 0.01988153 0.030560242 -0.035177544 -0.04202442
-0.091014735 0.10454573 0.016969556 0.017714936 0.08866975 0.016369672 0.001827075 -0.008141738
-0.011552639 0.04252566 -0.04905635 0.026948757 -0.07174802 0.011357774 -0.025408074 -0.027928881
-0.24187566 -0.071826376 -0.022427876 -0.2739248 0.020403665 -0.041072465 0.056291416 -0.062262297
0.035873927 -0.3639774 -0.014767407 0.035074614 0.0731895 0.05272162 0.39624694 -0.001987993
0.010581002 -0.08091093 -0.04626975 -0.07140431 -0.061352648 -0.09403885 -0.27697396 -0.05285737
0.03789079 -0.03408702 0.04506417 0.003449452 -0.056223817 -0.10870163 0.069223285 -0.07107086
-0.042166084 -0.026081344 -0.0008309435 0.09803021 0.07821626 -0.045339588 0.24395561 0.039112657
-0.02806725 -0.2159204 -0.0731952 0.1218377 0.073679164 0.024607912 0.02015295 0.04753749
0.007446312 -0.011218264 -0.017480183 0.27178785 0.03840702 0.006195913 0.06434276 -0.0527613
0.09643814 -0.065767646 0.17359689 -0.050805654 -0.060616307 0.021072425 0.5808995 0.009794506
0.07589325 -0.047215696 0.07683674 0.04405316 -0.18307182 0.018279813 0.06411471 0.038222145
-0.01802624 -0.04581772 0.06346755 0.06226511 -0.05045264 -0.21287057 -0.1235572 0.04065431
0.007430731 0.035131622 0.05470686 0.005586226 0.0744572 0.035202503 0.0037409016 -0.06801827
0.30624956 -0.00080430205 0.067040585 0.015050047 -0.0010670518 -0.0036081302 0.045356624 -0.031757295
0.0022928226 -0.10365404 -0.10374436 -0.13113406 0.19111253 -0.083969906 -0.022655217 0.051828846
0.084476374 0.018401131 -0.10207881 -0.008633676 -0.04698996 -0.36260733 -0.00953318 -0.08334713

net.3.bias f4 [64]
00000000: 29b1 aa3c 0253 86be fdc0 c63e 8d33 1ebf
00000010: 1160 4d3f 2f64 8f3f f41a e33b 4533 303f
00000020: 2ed9 0fbf e2c5 db3e 9276 c5be cc03 c5be
00000030: 3ca5 8e3d 66e8 e63e cc53 e6be 8bd7 833e
00000040: f09b 36bf a9a3 eebe cd46 a5be 46ea 5c3e
00000050: 2ca9 37bf 829c 15be 03be 0e3f 4297 0cbe
00000060: cc54 1fbf 6598 3fbe e2f5 eebe 3e74 6ebe
00000070: 49e3 f03e bf99 823e c29a 9abe f5fc 9ebe
00000080: b411 0d3f baf6 d23d 77f8 533b 2c76 93bf
00000090: b658 273d ceb7 87be 3462 b63e eb01 23bf
000000a0: 0cd8 cfbe 15a8 ef3e 14e1 9dbe 902b 553d
000000b0: e5bc 233f 7061 433e 228a 68bf 7050 debd
000000c0: 9c64 0dbf 1c67 023f 7ae9 05bd 2c22 a5be
000000d0: dfd1 1cbf 28cf 20bf 0c02 0f3f b59d 78be
000000e0: bbb0 febd a738 9fbe 23a6 8f3e bb49 023e
000000f0: 2b9b 133b fefa b23d d0a8 84be a558 e6be
0.02083643 -0.26235205 0.38819113 -0.6179741 0.8022471 1.1202449 0.0069307033 0.6882823
-0.56190765 0.4292441 -0.38567024 -0.3847946 0.0696511 0.4509918 -0.44985807 0.25750384
-0.7133169 -0.46609238 -0.3228058 0.21573743 -0.7174251 -0.14610484 0.55758685 -0.13729575
-0.62238765 -0.18710478 -0.4667197 -0.2328653 0.47048405 0.25507924 -0.30196196 -0.31052366
0.5510514 0.103009656 0.0032344142 -1.1520438 0.040856086 -0.2650742 0.35621798 -0.636748
-0.40594518 0.46807924 -0.30835783 0.052043498 0.63960105 0.19080138 -0.90835774 -0.10855186
-0.5523164 0.5093858 -0.032693364 -0.32252634 -0.6125774 -0.62816095 0.558625 -0.2427891
-0.124360524 -0.3109791 0.2805644 0.12723438 0.0022522907 0.08739279 -0.25910044 -0.44989505

net.6.weight f4 [32, 64]
00000000: c108 0f3c 9125 013e 01f3 0fbd b357 34be
00000010: 9458 5bba 157c 79be 8c16 0e3e 5895 2bbd
00000020: 6ca2 8b3a 3d4b 113b 4536 3fbe b695 fdbd
00000030: 0836 d73d 42e0 28be 5f3c 993d cbcd c73d
00000040: 3263 efbd 4032 103e 022a a2be adcf dd3d
00000050: 43ae 243d bb0c 673d b4ce 02bf cf45 4f3e
00000060: 07db 02bd ded6 f9bd dea9 cfbd 5bd8 30bd
00000070: 1ef0 bcbd 47ae ffbd 4d76 3cbe 62b7 233d
00000080: 3de1 d6bd 8ac8 263e bab7 863d cc43 123d
00000090: 11b1 4dbd f080 8abe cba7 d33d ec45 1fbe
000000a0: d918 88be 13f0 d23d 97bc 02be 18ad 9ebd
000000b0: aa1d 1abe 4548 243e 99f4 513d 6af6 53be
000000c0: 0d02 563d 7b63 f13c 2a05 38bd 2e25 21be
000000d0: ac8c cebd b92c 74bd 7638 7abc 96b8 f0bc
000000e0: 5897 93bc 7f2b e3bd e8c3 0fbe 8904 0a3b
000000f0: a29e a6bd 5f06 a83d 7c3a adbe 129a ee3c
00000100: 8a7f 163e c77d d4bd 42b3 623d 3149 1dbe
00000110: 1bf4 6dbe ee5a c8be db0b afbd 810c 9f3d
00000120: 75e2 6ebe a004 923c 46f9 a2be eb5e 0c3d
00000130: 8679 3b3e e6da b4bd 4db8 81be 0d98 a3bd
00000140: 4a39 49be 614a 14be 32ff 3ebc 5738 aebe
00000150: 40fe febd 7a44 b13d 513a 14bd c469 b83d
00000160: ed26 1fbe f052 13be ec16 77be 32db 30be
00000170: 19c2 aa3c 2a6d bb3c c8b7 b53c 31fb 8ebe
00000180: c636 383e f2e4 1d3d 0c8f ef3d 9c68 e6bd
00000190: 575d 2d3e 2dac 7ebe 6741 233e 7dd1 e0bd
000001a0: 63af 2f3c 8880 30bd 6321 dcbd 1f15 063e
000001b0: a2df afbd 22b4 d53d c731 5dbe b87a bd3d
000001c0: 6e17 37be 7bba 523d 8328 703d 14bd 1abe
000001d0: 0168 f1be 2ef7 8ebe a1bd 6fbe 3861 8fbe
000001e0: a1a2 eebc a6a6 98bc f04d 2f3e b8d9 8a3b
000001f0: 1760 073d 8857 e73c 5705 86be a795 09be
00000200: 6777 063e 95b2 2abe 09ec 9fbd 77cc 0abd
00000210: 1b82 05bd 1eb8 7e3b c773 2f3b 5ddb b53d
00000220: 41de 86be c58d 17bd 3ae6 89b9 4583 8ebe
00000230: d46e 9cbd db8f 79be da3d a7bd ffd5 1ebe
00000240: 5ae4 9b3d ff23 063d 5828 6c3d 411d 3ebd
00000250: 5574 73be d97c 623d 7255 82be 2bf9 a3be
00000260: b3dc 0b3d a30d 213e 0e48 823a 05ec 29be
00000270: e1cf 34bc 6c8d 89be 7549 75be 4d68 b73e
00000280: 725a 973e 2f00 5fbe 174d 05bd a136 01be
00000290: 6c7b 86be 2dde a6bd 7bea 13be 0ca2 00be
000002a0: 7e40 de3d 8e5e 5ebe 5b95 673d e0ea 96be
000002b0: 8fb0 a1bd 232a 9cbd a262 6a3c fd7d ee3c
000002c0: 3343 adbd 3bea 61be 31e4 a5bd fb0d d73c
000002d0: b5b0 ad3d 1cad 7e3d f36a a6bd 6d52 a4be
000002e0: 87b7 533c a98b 133e bf8c a2be fa74 5bbe
000002f0: 011f 72be 9711 93be 8493 a33d 7a62 8dbd
00000300: c6cf 24be dc77 eebd c209 3abe 0d67 debd
00000310: da69 263e 37f3 b63e 4d90 15bd c782 b9bb
00000320: 0fc3 68be 5fde f23c b524 f1bd 7c27 29be
00000330: 3bdd 44be 2307 50be 7009 fa3c 3375 81be
00000340: b887 84be d5bf b1bc 8ecd 6ebd 0898 55bd
00000350: c21b aa3b a5e2 8bbe e1ba 5cbe e8cf 0dbe
00000360: f95e 19bd 3b61 633d 9cd6 38be 5111 0bbc
00000370: b919 16be 7044 5fbe bf48 ba3d 4f8f e13b
00000380: 34be 84be aa11 90be 95de 77be 4b1c cabd
00000390: c227 23bf e536 6ebd e442 28be 0075 cdbd
000003a0: b740 953c 014f 59be 4454 8bbe a8fa a6be
000003b0: ddeb d23d 494f 89be 6834 6dbd 9338 71bd
000003c0: d668 003d 6a45 ab3d 2a89 69be e2f7 48bd
000003d0: 978c fd3c e6e3 603d 092f df3b 0f38 093e
000003e0: 4f7a 30be e064 efbd df42 92be 367c 98bd
000003f0: 991e 73be 02c4 bfbe 396b 60be 6ba5 7ebd
0.008730114 0.12611987 -0.035143856 -0.1761158 -0.0008367386 -0.2436374 0.13875788 -0.041890472
0.0010653264 0.002217009 -0.18673046 -0.12382071 0.105083525 -0.16491798 0.07482218 0.09756049
-0.11688842 0.14081669 -0.31672674 0.10830627 0.04020525 0.056408625 -0.51096654 0.20241474
-0.031947162 -0.12199186 -0.101398215 -0.043175083 -0.09225486 -0.12484413 -0.18404503 0.03996981
-0.104921795 0.16287437 0.06578012 0.035709187 -0.05021769 -0.27051497 0.10334738 -0.15554017
-0.26581457 0.10299697 -0.12767254 -0.07747859 -0.15050378 0.16043194 0.051258657 -0.20699468
0.05224805 0.029466381 -0.0449268 -0.15736839 -0.10085425 -0.059612963 -0.01527225 -0.029384892
-0.018016502 -0.110922806 -0.14039576 0.0021059832 -0.081357256 0.0820434 -0.33833683 0.0291262
0.1469709 -0.103755526 0.055346735 -0.15359952 -0.2323765 -0.39131874 -0.08547183 0.07766057
-0.23328574 0.017824471 -0.31830806 0.03427021 0.18308076 -0.08830814 -0.25335923 -0.07987986
-0.1965076 -0.14481498 -0.011657523 -0.3402736 -0.12450838 0.08655639 -0.036188427 0.09004548
-0.15542193 -0.14387107 -0.24129838 -0.17271116 0.020844506 0.022879202 0.02218236 -0.2792602
0.17989644 0.038548417 0.11697206 -0.112504214 0.16930138 -0.24870367 0.15942918 -0.10977457
0.010722968 -0.043091327 -0.107485555 0.13093995 -0.085875764 0.10434748 -0.2160102 0.09251922
-0.17880031 0.051447373 0.058632385 -0.1511119 -0.4714966 -0.27922958 -0.23412181 -0.2800386
-0.029130282 -0.018634152 0.17119575 0.00423738 0.033050623 0.02823998 -0.2617595 -0.13435994
0.13131486 -0.16669686 -0.07808692 -0.0338864 -0.03259478 0.0038867067 0.002677189 0.08879731
-0.2634144 -0.037000436 -0.00026302208 -0.27834526 -0.07638326 -0.24371283 -0.08166094 -0.1551132
0.07611914 0.032749172 0.057655662 -0.046414617 -0.23774846 0.055294845 -0.25455815 -0.32026038
0.034146022 0.15727858 0.0009939687 -0.1659394 -0.01103589 -0.2686571 -0.23953803 0.35821763
0.29561192 -0.21777414 -0.03254422 -0.12618496 -0.26266038 -0.081478454 -0.14444916 -0.12561816
0.10852145 -0.21715757 0.05653892 -0.2947607 -0.07895004 -0.076252244 0.014305742 0.02911281
-0.08460083 -0.22062008 -0.08100165 0.026251784 0.0848097 0.06217681 -0.08125868 -0.32094136
0.012922174 0.14408745 -0.31748006 -0.21431342 -0.2364464 -0.28724357 0.07987121 -0.069035485
-0.16094884 -0.11643955 -0.18167785 -0.10859499 0.16251317 0.35732433 -0.03651457 -0.005661342
-0.22730659 0.02964705 -0.117745794 -0.16518968 -0.19225018 -0.20315222 0.030522078 -0.25284728
-0.25884795 -0.021697918 -0.0583015 -0.05214694 0.0051912973 -0.27321354 -0.21555664 -0.13848841
-0.03744409 0.055512648 -0.18050617 -0.008488015 -0.1465825 -0.2180345 0.090959065 0.006883539
-0.25926363 -0.28138477 -0.24206002 -0.09868678 -0.6373254 -0.05815782 -0.16431767 -0.100320816
0.018219335 -0.21221544 -0.27212727 -0.3261311 0.102988936 -0.26818302 -0.057911307 -0.058891844
0.03134998 0.08362849 -0.2280623 -0.049064524 0.030950828 0.05490484 0.006811027 0.13400291
-0.17234157 -0.11689162 -0.28566644 -0.07445566 -0.23742141 -0.3745423 -0.21915902 -0.062169474

net.6.bias f4 [32]
00000000: d2ca b43e 973b 833f 7d5d 0c3e a4da 1f3e
00000010: 1f57 1c3e 3d94 90bf f93e 643e 8f8a 493f
00000020: b717 543e 5eff 8abf 6494 073f dd68 a23e
00000030: 4734 35bf ffab 203f 7e7a 273f 3d02 7bbe
00000040: 595a 0f3e c116 ee3e d488 ecbd 5589 9ebc
00000050: 5215 2f3f 641a e23d 3b94 1abd ed65 2c3f
00000060: a57d a6bd aab0 a8bd 3dd0 a03e 5da7 ee3c
00000070: fdaa 3e3e 7aaa c63d 136d 383e 25fd c4bb
0.3531099 1.025256 0.13707538 0.15610749 0.15267609 -1.1295239 0.22289647 0.7872705
0.20712171 -1.0859182 0.529608 0.3172063 -0.70782894 0.62762445 0.65421283 -0.24512573
0.13999309 0.46501735 -0.115495354 -0.019352594 0.6839191 0.1104019 -0.03773902 0.67343026
-0.081294335 -0.08236821 0.31408873 0.02913254 0.18619914 0.097004846 0.18010359 -0.0060116225

net.9.weight f4 [2, 32]
00000000: 5eb3 903d bcfc bf3d a49e bfbd ebea d33d
00000010: 7c20 243e 4ecb 2fbe 60a4 00bc 1ad5 94bc
00000020: b5e0 99bd 6b33 32bd 2404 443d 6771 2fbe
00000030: b9ab 253b 23f8 593d 8bca 233c 260b b2bd
00000040: eb7c b5bd 525b 73be 5ff2 17be 800e 803d
00000050: 43e5 8c3d 86e6 6cbd 8e3e b1bd 1a1e 2ebe
00000060: d199 9fbd 7916 9c3d 6269 3e3d 5dc1 903c
00000070: a130 df3d 9473 00be 5af0 783e 4edd a5bc
00000080: ffe7 123e ef94 9a3c efdc e63c 3a6e 0d3d
00000090: 7e68 bb3d 7dd9 d7bd 2c83 023e 928e d5bd
000000a0: 2d3f 313d b5e2 fb3c 7b37 0b3e 0b5f bbbd
000000b0: bb55 0f3d e5be 353e b32f 053e 80db 703d
000000c0: 1eee 28bb 871c 9cbb d6db 96bc 43db 8d3b
000000d0: c6fc 82bb 73d9 d33c a513 a8bc f097 90bd
000000e0: fc4f 673a 491e e83d d7c6 013e cc59 0f3e
000000f0: 8fab be3b f569 95bc 2783 ff3a 4c0b 233d
0.070654616 0.09374377 -0.0935643 0.103475414 0.16028017 -0.17167398 -0.00785169 -0.018168021
-0.075135626 -0.043506067 0.04785551 -0.17133103 0.0025279357 0.053215157 0.0099970205 -0.08693533
-0.08861717 -0.23765305 -0.14838551 0.06252766 0.06879666 -0.05783703 -0.086545095 -0.1700367
-0.0779301 0.07621474 0.04648722 0.017670328 0.10897947 -0.1254409 0.24310437 -0.020247128
0.14346312 0.018869845 0.028181521 0.03452895 0.0915079 -0.105395295 0.1274535 -0.10427584
0.04327314 0.03074775 0.13595383 -0.091489874 0.03499387 0.17748602 0.13006477 0.05880308
-0.0025776695 -0.004764143 -0.018415373 0.0043291165 -0.003997418 0.025860524 -0.02051718 -0.0706023
0.0008823869 0.113339014 0.12673508 0.13999099 0.005818791 -0.018239 0.0019494042 0.039805695

net.9.bias f4 [2]
00000000: e079 c93e 8d67 3bbe
0.39350796 -0.1830122
